models/model_lstm_2_layers.pt (torch, 731833 bytes, 11 tensors)

weight f4 [100, 100]
00000000: 6e4b 4d3f 3e96 5c3e 18d5 04bf 42e8 74bd
00000010: 33e4 35be 0a41 9dbd 9eb9 133f 1984 44be
00000020: 768e 8a3e fa45 2a3e 9115 07be 424f a93f
00000030: ace5 d7be 263e 0240 77ec df3e b136 3fbf
00000040: 3c73 68bf 8c59 233f 2827 12be 2e3c 94bf
00000050: d3b9 a93e 6dfb ddbd 5e0c 50bf f4cf 9f3f
00000060: 811f 9fbf 8c93 e0bb 07d9 5abf e253 4ebf
00000070: 0d90 383e 179e 6f3e dd4b ec3f 8cb4 90bf
00000080: 9854 49bf 6e14 aebd 60a8 bd3e 70a2 3abf
00000090: 56fd 273f acf7 4d3f 1aed 53bf d4be febf
000000a0: a5ab 983f bd5c 193e 7a76 e73d 8552 d5be
000000b0: 399c 62bf caef d0be 16eb 653f 558b 853e
000000c0: 955d b9be 1559 56be 6042 573e fb0a 2540
000000d0: 6d8f 923f 6a57 36bf 235e 513f 5a27 93be
000000e0: 8514 af3e 8d3b f4bf 6325 8b3f 3d33 30c0
000000f0: dfe6 593f 45b9 4140 15ef 043d 8302 8e3f
00000100: ce2e 13c0 6f21 833e 2576 8e3e a306 75be
00000110: 33a1 6d3f c8b1 2740 ef80 b9be bf1b 673d
00000120: 7e06 b23e 8f29 c7bf 1dcc d4bf 2bad 14c0
00000130: b3be e1bf 1764 ffbd 37f4 fb3f 4fa1 803f
00000140: 36d4 bb3d 5ae3 8dbf 9bfd 1f3f be2b 92be
00000150: c203 803f 2439 51be 314a 00bf 57a7 e83f
00000160: aeb0 8c3f d632 5740 d404 633e 140b 77c0
00000170: 40d4 1fc0 8ed7 cfbf 51ec 583f 323e b23e
00000180: a6b1 4640 fd12 63be d099 f23f edd3 89bd
00000190: f78b 5abd c4dc 03bf 7825 1040 33f4 0a3e
000001a0: fbe6 853f 8ac2 343e f882 e3be 15ce 18c0
000001b0: f239 423f fedb 233e b80a cfbe 8388 3ac0
000001c0: d08d 993f c2cc b43f 5185 bb3f 1621 29bf
000001d0: 4128 c43d ceb6 92bf 3c5b 923f 9889 3240
000001e0: 299e 9b3e e665 96be 26c8 e53f aa7d e0bf
000001f0: b5e3 f2be 9dcc 1340 4e59 5ebf 76b0 693e
00000200: ed71 053f db01 753f 8488 a73f bcdd 123d
00000210: b55a 63bf 2c2f 3ebf 4942 eb3f f892 c5bf
00000220: 644a 263e 8e76 013f d5bb 25be 80b1 b4bf
00000230: 3fb1 f23e 2f37 5cbf cc08 d5bf 0d10 d6be
00000240: 25e1 1bc0 09d5 8c3f 0f12 843f c64e db3f
00000250: e7c2 ab3f e25b 163f b189 d4be b3f1 87bf
00000260: eb1c 0fbf daa4 c5be e567 e03c fd01 13c0
00000270: b82f 22be 3dda bdbf 6ed2 d93e 6f54 063f
00000280: 276e 2bbf bcf2 113f 40e0 e33f e0aa 3abe
00000290: 3275 e1bf 5872 ebbf db17 6fbd 10a3 76bf
000002a0: 6acf 3b3e df3c 983f a2bf d13c f954 6e3f
000002b0: 3eda aabf cccd 21be 7c16 c2bf 3bd9 40bf
000002c0: 7f2f c53e 6774 51be 3b96 e1be 8ca0 fbbe
000002d0: 7822 bf3f 0557 193f 4e3b 8bbe 689e 833f
000002e0: 0c69 a7bf d285 13bf 8be8 d33f a6b8 9dbd
000002f0: d3de 85bf b54e a2be f417 f0be 3fc9 0640
00000300: 0a19 b83f 1a03 f6bf fb13 583f 7295 10bf
00000310: 0fcf af3f 7f79 d4bf 4298 b9be 2673 be3f
00000320: 4643 493f e0e2 ad3f 5d11 36bf 9723 9f3f
00000330: 6da6 a2bf 69e0 413d 5f4f 913f caed 373f
00000340: cfe7 a1bf 6890 323f 9be8 36bf 6d1a 403e
00000350: cef5 5dbf 560d 5f3f e89d b3be 1d95 6d3f
00000360: d6ee 9bbf 7700 00be ec40 f93f f516 05bf
00000370: 53d0 0dbf 44cd d13f 3782 b13e 2379 b33d
00000380: e86a e7bf 67f0 ac3f 7c62 c4bd 2fab bbbf
00000390: 6350 8bbf 06c9 43bf ae8d 923f 1aa3 c63f
000003a0: 1233 4e3f 30d6 b4bf 7b98 01c0 edf2 f0bf
000003b0: 85a2 2bbf 5b7f 113f 391c 5f3e 3e05 c3bf
000003c0: 7567 cdbe 419e ebbe eee3 98bf 35ab 50bf
000003d0: 27df 27c0 01f8 923e a0f1 cebe da79 933f
000003e0: b74d 793d 470c 04c0 858f 0e3f 1f91 e0be
000003f0: 82a7 d53f 375a bcbf 0975 f93d 32b8 66bf
0.8019322 0.21541688 -0.51887655 -0.05979181 -0.17762832 -0.07678421 0.57705104 -0.19191016
0.27061814 0.16628256 -0.1319182 1.3227313 -0.42167413 2.0350432 0.43735096 -0.7469283
-0.90800834 0.6380851 -0.1427275 -1.1580865 0.33149585 -0.10838971 -0.8126887 1.2485337
-1.2431489 -0.0068535265 -0.8548741 -0.80596745 0.18023701 0.2340015 1.8460652 -1.1305099
-0.78644705 -0.084999904 0.37042522 -0.7290411 0.65620935 0.8045604 -0.82783663 -1.9901986
1.1927382 0.14976783 0.113018945 -0.4166452 -0.88519627 -0.40807945 0.8981184 0.26082864
-0.3620421 -0.2093242 0.21021414 2.5787952 1.145002 -0.71227133 0.81784266 -0.2874096
0.34195343 -1.9080673 1.0870785 -2.7531273 0.85117906 3.026933 0.03245457 1.1094517
-2.2997317 0.25611445 0.27824512 -0.23928313 0.92824095 2.620226 -0.3623118 0.056422945
0.34770578 -1.5559558 -1.662479 -2.3230693 -1.7636322 -0.124702625 1.9683903 1.0049227
0.091713354 -1.1085007 0.62496346 -0.28548998 1.0001147 -0.20431954 -0.5011321 1.8176068
1.0991418 3.3624778 0.2216981 -3.8600512 -2.4973297 -1.6237657 0.8473559 0.34813076
3.1045928 -0.22175212 1.895319 -0.06729875 -0.053356137 -0.51508737 2.252287 0.13569717
1.0461115 0.17652336 -0.4443586 -2.3875782 0.7586967 0.16001889 -0.40437865 -2.914582
1.1996403 1.4124987 1.465006 -0.6606611 0.0957799 -1.1462038 1.1434093 2.789648
0.30394104 -0.29374617 1.7951705 -1.753835 -0.47439352 2.3093636 -0.8685502 0.22821221
0.5212696 0.95705956 1.3088536 0.035855994 -0.8881028 -0.7429073 1.8379604 -1.5435476
0.16239315 0.50571525 -0.16184933 -1.4116669 0.47400853 -0.86021703 -1.664331 -0.4180912
-2.4356167 1.1002513 1.0318011 1.7133415 1.3418854 0.5873395 -0.415113 -1.0620636
-0.559035 -0.38602334 0.02739329 -2.2969964 -0.15838516 -1.4832226 0.42543358 0.52472585
-0.66964954 0.5701101 1.7802811 -0.18229246 -1.761389 -1.839427 -0.05837236 -0.96342564
0.18340841 1.1893576 0.025604073 0.9309841 -1.3347852 -0.15801162 -1.5163112 -0.7533147
0.385128 -0.2045456 -0.4405993 -0.49145925 1.4932394 0.59898406 -0.27193683 1.0282717
-1.3078933 -0.5762607 1.6555341 -0.077012345 -1.0458626 -0.31700674 -0.46893275 2.106033
1.4382641 -1.9219697 0.8440549 -0.56478035 1.3735064 -1.6599578 -0.36248976 1.487889
0.78618276 1.3584862 -0.71120244 1.2432736 -1.2707039 0.047333155 1.1352347 0.7184721
-1.2648867 0.69751596 -0.7144868 0.1876008 -0.86703193 0.87129724 -0.3508141 0.92805654
-1.2182262 -0.12500177 1.9472938 -0.51988155 -0.55396 1.6390767 0.3466966 0.08763339
-1.80795 1.3510865 -0.09589097 -1.4661616 -1.0883907 -0.7647861 1.1449487 1.5518525
0.8054668 -1.4127865 -2.0249317 -1.8824135 -0.6704486 0.56834954 0.2178811 -1.5235975
-0.40117994 -0.46019176 -1.1944559 -0.8151124 -2.6229951 0.28704837 -0.4041872 1.1521561
0.06086513 -2.0632493 0.55687743 -0.4386072 1.6691744 -1.4715031 0.12180526 -0.9012481

weight_ih_l0 f4 [400, 100]
00000000: f46d 783d 7fe9 00be 1f69 383e 2a62 873d
00000010: 7656 32bd 9c56 0cbe a0a4 babd a79a 01bf
00000020: 2bac d4be 7835 b93d 896f 943c 19eb bebd
00000030: f1f8 81be fd92 16be 66d5 72be 968d 163e
00000040: 99e9 8a3e c8b3 343f 4888 5fbf f617 5cbd
00000050: ecbc 1fbf 8078 213f 0fd7 5b3d 41d8 39be
00000060: 16b0 52be 17c5 56be 488f 4d3f b9cd 6ebe
00000070: de7c 05bf 4410 32bd 9b29 0f3f 2802 093f
00000080: 252f 963d 4a76 13bc 5f52 5c3d 6ac0 d2bd
00000090: dd45 99be 7211 7cbe 96c4 05bf 9a91 12be
000000a0: 3009 8cbc bf2a 4d3e c318 edbd e165 433d
000000b0: 0058 5c3e 31c7 313e 33ed 81be f29b 52be
000000c0: c87c 5b3e 694b 093e 89b4 17bf e7f3 65bf
000000d0: fb5e d93e c9a3 a33e 603f c53e e209 f93d
000000e0: 0761 1b3f d160 043e 6382 01bf 4e6f 26be
000000f0: 1ccf 0b3e 11d4 fcbd c47e d03e 059e bcbd
00000100: 9605 fa3d f73b 2abe d28f a13e 8dec c63d
00000110: dba4 9c3d ed04 353f 02fa 8bbb 44ed f0bd
00000120: 0366 cd3e a538 6cbd 01fd ac3e f38c 31be
00000130: 8795 48bc 0baa d63d 4625 313e 0d8c a4be
00000140: 5a14 47bf 398f 41bf 5f36 0d3e b7e6 e8be
00000150: e460 1abe f87d 83bd 6cc3 5c3e bcbe 4ebe
00000160: f5c3 15bf 5c7f 943e be73 a6bb bf02 583e
00000170: 7b9c 943e 834f fdbe 6aa6 8fbe d24b c5bd
00000180: cb67 33bf f17a 10bd 1898 633f afbb 373d
00000190: 583c 253d b32d 02bf 642e 1b3f afbc 2cbe
000001a0: be43 9ebe 0588 a0bd 5e9c 823e 8cfe 563f
000001b0: 7428 29bb a890 96bc 474c edbe 1415 a63f
000001c0: 0885 503e 39ce d43e 8ccf 453e 0c69 9c3e
000001d0: edd2 ee3e 42e5 613e 4da7 873d 492b 23be
000001e0: 3a73 8d3e 36b2 9dbe 1a3d e33e feed 54bd
000001f0: 7f12 8c3e 7083 c83e 925b 58be 555d 46be
00000200: f21d bdbe 70c0 73be 4c17 233f 081f f63d
00000210: cc0c b8be 92d7 a23d 4b34 c83e cb22 cb3e
00000220: 7672 9fbe 1bf5 98be 25d6 e93e 642a da3d
00000230: 11fc 153e e583 19bf 570d 0cbf e5d3 0cbe
00000240: 30fe fb3e 896d ee3e ef3d 303e a7a9 1bbd
00000250: bdb4 6abf 79f5 143f 9115 0f3c 824f a8be
00000260: 416d 67be 0338 ed3e bbe5 7d3d f16f 323f
00000270: fd34 243f d345 3f3d 3169 633e 3305 09be
00000280: 5dbf 433f 5157 503e f9f1 2dbf d3de a43e
00000290: d14d 12bd 7784 34bf d4f1 e13e a46d 39bf
000002a0: d9b5 e7bd 4181 1a3f 301d debd af32 5abf
000002b0: 1a30 2e3d 1c00 163d 87df 1dbe c3c6 5b3f
000002c0: ffce eabd a9a2 f3be 19f2 aabe dc45 11be
000002d0: 6128 63be e339 dabd c3a0 dbbd 0f5e 803e
000002e0: 8720 453e a695 b1bd b4be 83bd 5123 0c3f
000002f0: 2fe3 81be 5b4e d2be e2f8 afbd 3b02 293f
00000300: 55c7 83be 477b 22bd 48ad 103e a53f d1be
00000310: f261 893e b101 2fbf 54b8 9ebe 3511 10bf
00000320: b48c a23e 3105 aabe 02c8 7d3e d842 65be
00000330: 72d4 d6be 1e3e ff3d 70db 903e adf0 01bd
00000340: f9a5 ebbd e9ce 50bf 3116 a53d 67f9 3cbe
00000350: 2fb3 8abd df7d 243f b93e 28bf eaa0 d8bd
00000360: e59e 80bd b60d b23e 54d2 7fbe 1a49 383e
00000370: 16a3 d83e 8355 02be 0a3b 4cbe 6970 31be
00000380: ad41 09be dc34 c93e 17ac b33d ddd9 6f3e
00000390: ecae 513a dea4 ad3e baa9 2d3e 5a3c 02be
000003a0: 3718 ff3e d256 b7bc 37b7 1fbe ff9d c93e
000003b0: be07 babe 3eeb dfbd dbb8 e7be 49d7 02bf
000003c0: 402a 29be 80b5 b3be 1ba4 68be 0e92 edbd
000003d0: 16c7 bebe a098 04be 4c8c d2bb aeca 063f
000003e0: c64f 083f 1dc1 143e 6420 013e 2e99 a83e
000003f0: 7c53 8fbe 3ba8 36be 58d3 f73e ecb3 2ebd
0.060651734 -0.12589072 0.1800885 0.0661052 -0.043539487 -0.13704914 -0.09113431 -0.50626606
-0.41537604 0.090434015 0.01811959 -0.09322185 -0.2538524 -0.14704509 -0.23714218 0.14702448
0.27131346 0.70586824 -0.87317324 -0.05373379 -0.62397647 0.63074493 0.053671893 -0.181489
-0.20574984 -0.20973621 0.80296755 -0.23320664 -0.5214366 -0.043472543 0.5592286 0.53518915
0.07333211 -0.00900037 0.053789493 -0.10290606 -0.29936114 -0.2461603 -0.5225309 -0.14313355
-0.017094225 0.20035838 -0.115769885 0.04770458 0.21517944 0.17361142 -0.2537628 -0.20567301
0.21434319 0.13407673 -0.5925985 -0.8982529 0.42455277 0.31960896 0.38524914 0.12160088
0.60694927 0.12927558 -0.5058958 -0.16253397 0.13653225 -0.12345136 0.40721714 -0.09209827
0.12208097 -0.16624437 0.3155504 0.09713087 0.07648631 0.7071064 -0.0042717466 -0.11764005
0.4011689 -0.057671208 0.33786777 -0.17338924 -0.012242681 0.10481652 0.17299375 -0.321381
-0.7776543 -0.75609165 0.13790272 -0.4548852 -0.15076023 -0.06420511 0.21558923 -0.20189947
-0.5850213 0.29003417 -0.0050797155 0.21094798 0.29025635 -0.49474725 -0.2805665 -0.09633602
-0.7008025 -0.035273496 0.8890395 0.044856723 0.04034075 -0.5085098 0.6061766 -0.16868852
-0.30911058 -0.07838444 0.25509924 0.8398216 -0.0025811465 -0.018379524 -0.46347257 1.2975183
0.20363247 0.41563585 0.19317454 0.30548894 0.466453 0.22060111 0.06623707 -0.1593448
0.27626973 -0.30800027 0.44382554 -0.05198478 0.2735786 0.3916278 -0.21128681 -0.19371541
-0.3693691 -0.23803878 0.63707423 0.120176375 -0.35947263 0.07951273 0.39102396 0.39674982
-0.31142014 -0.298745 0.45671192 0.106526166 0.14646937 -0.5996688 -0.54707855 -0.13752706
0.49217367 0.46567944 0.17211126 -0.03800359 -0.91682035 0.5818706 0.008733169 -0.3287316
-0.22600271 0.46331796 0.061986666 0.6970206 0.64143354 0.04669745 0.22208096 -0.1338089
0.7646387 0.20345809 -0.67947346 0.3220125 -0.035718743 -0.70514625 0.44129813 -0.72432923
-0.113139816 0.60353476 -0.10845411 -0.8523359 0.042526342 0.036621198 -0.154173 0.8585016
-0.114652626 -0.47585037 -0.3338783 -0.14186805 -0.22183372 -0.10655572 -0.10724022 0.2507176
0.1925069 -0.08671121 -0.06432858 0.5474139 -0.2536864 -0.41075405 -0.085923925 0.6601903
-0.25738016 -0.039668348 0.14128602 -0.4086887 0.2683254 -0.68361956 -0.31000006 -0.56276256
0.31747973 -0.33207086 0.24783328 -0.2238878 -0.41958958 0.1246302 0.28292418 -0.031723667
-0.11506266 -0.8156572 0.08060873 -0.18454514 -0.06772458 0.64254564 -0.6572071 -0.10577567
-0.06280307 0.34776086 -0.24982578 0.17996636 0.42311925 -0.12727933 -0.19944397 -0.17328037
-0.1340396 0.3929814 0.08773058 0.23422952 0.00079987827 0.33914846 0.16959277 -0.12718335
0.49823162 -0.022380266 -0.15597235 0.39378354 -0.36334032 -0.10933541 -0.4525822 -0.5110975
-0.16520023 -0.3509941 -0.22718851 -0.11600123 -0.37261266 -0.12948847 -0.006425416 0.52653015
0.53246725 0.14526792 0.12610012 0.32929367 -0.2799338 -0.17837612 0.4840343 -0.042652056

weight_hh_l0 f4 [400, 100]
00000000: 68d2 653d 44f4 eb3e d25f bbbf 74ed d6be
00000010: 526d 173e 1693 b13f 4de1 2abf 4c77 9b3f
00000020: 8a2f eb3e 3d93 d33e 78e0 843f d80d 123f
00000030: 75b7 6f3d 7fd2 d8be 6cdf 2d3f f21c 30bf
00000040: a93d 3abe 399d 483f 7d9c edbe 0efa 0dbf
00000050: 2f69 633f 9c8d b43e a45b bb3d 4aa4 54bf
00000060: ad5a 80bf 1d48 36bf 191e 4a3f 1327 6a3f
00000070: bbd2 c03f 3ab5 1ebf 854b acbe 4957 d43e
00000080: a5cd 89bf a021 13bf 9c9f 563f 7ef6 3fbf
00000090: 9e5f c9be 1f88 61be 6164 7fbe d412 1ebf
000000a0: 56eb 85bf 2293 0f3b 380a e1bf b8ef 16be
000000b0: f98d b63e 8dc2 683e faf1 01bf e148 02bf
000000c0: a108 f13d 6a6c 20bf 6f7a eb3c 02de eabe
000000d0: 07a0 143f e5b1 4b3f d972 a9be 3d13 adbe
000000e0: b225 9bbd 362a 08bf 8ed4 823e 20ec 45bf
000000f0: 16f5 a7be 7c8f 63be 5ad2 3f3f 0a33 fa3e
00000100: 0c7f 843e f6cc 82bf 4a59 753e b7e8 bd3f
00000110: a182 e03e 99ff 32bf c643 dabe 09c0 0d3e
00000120: 5f76 2abe 388f 6e3f f93e 8abc 90ca febe
00000130: 3222 a13f 29cf 0cbf d579 523f 6097 acbd
00000140: e3fe b2bf 501f 6e3f 7a4c 1cbe a1a0 acbe
00000150: c28d d5be f921 36be 1a80 13bd e59e 98bd
00000160: 0ca4 6cbe ece4 713f a9b7 333f b823 173f
00000170: 0d6f 453f 3085 443e e7b7 c53e c1f4 65be
00000180: 14d8 2f3f 68f2 55bf ec9e 4d3f 9a2e 4bbe
00000190: efd1 aebd 1c9f 87bf dc04 863f d0ee d5bd
000001a0: 3a13 1dbd 2292 023f 30e4 763f 6711 52bf
000001b0: 96c5 35bf 7b37 673f 3f99 b9be d178 adbe
000001c0: 1886 f4be 6b0c 45bf ffc3 273f d3e0 1abf
000001d0: 3c80 d73e 79fb 6cbf 8637 21bf bb1f 36bf
000001e0: 027e 05bd 1008 943e b4b6 b43d c319 c23d
000001f0: 3a5f c2bf 1705 66be fd1e c23e 17fa 113f
00000200: db2e 913f b1f1 e53f 767e 963d 6962 153f
00000210: e773 7e3e 0c45 babf 0800 633f d4ea 523f
00000220: c3fb 5cc0 db8a bebe f0e7 0f3f 8e3b ee3e
00000230: 2ccd 3ebf 26a8 733f 55df 8d3f c967 65bf
00000240: 2459 c43e 1d2c 9bbe 4f6c 313f adc9 913e
00000250: 33b7 19bf 36be 0a3f aff0 04bf 5b3a 12bf
00000260: 156b 1e3f 6cdc 22be ecc6 433f 4816 78bf
00000270: 8153 733f adc2 27bf 2652 7fbe ade4 2240
00000280: ad23 393f dc37 22bf c3b9 d8be 8640 2dc0
00000290: 372e 93bf 49ce 423f 48b4 c53d 1735 59be
000002a0: 7bf5 e5bd d1a5 ba3f 81ac 803f f59b de3e
000002b0: 3282 6cbe 08db afbf 3dc4 eabe 4a9d b23e
000002c0: 9b15 64bf 7918 8ebf 3a70 d1bc e16d ca3e
000002d0: b55b 293f 0107 e53f 5e1e 023f cba8 903f
000002e0: 8d66 31be af41 e8be b10a 5d3e 00be b5bf
000002f0: 2839 793d 8139 303f fc95 32bf 05f3 35bf
00000300: 30cf 893e fbd6 27bf 71ab 743e 439f b73e
00000310: 692b e2bd 46f5 3cbe 1383 0cbf 9e28 503f
00000320: 60e5 6f3e b0f2 5cbe 9acf 45bd dadd b8be
00000330: 7a52 5bbf dcfd 4ac0 10c6 fd3e 3c72 2dbd
00000340: ecc4 703f 4640 31bf 6ab5 8b3f 32e8 8f3d
00000350: b3c6 08c0 6bc0 533f 03ff 3e3e ddf2 233f
00000360: 6c3d bd3f 0692 55be f95a f6bd 03e8 4b3f
00000370: 7cb0 6bbe 0561 dc3e 6dbd 843e bb86 0bbf
00000380: 9ff4 d63e 3b7e a53e b95c 433f 8a5b 7bbd
00000390: 7daf a9bf 6616 c73e 7780 3a3f 2279 a93f
000003a0: fd73 9cbe b4b9 983f 004e 593e f2eb 1b3e
000003b0: f068 efbe c2c9 fcbe 7bd1 2cbf 4838 863d
000003c0: 7b58 14bf efe1 f8be 182d 0540 546f a0be
000003d0: 945c 3ebf 2501 a53d 70fc b4be e0fa 83be
000003e0: bef9 44bc 062d 85bf ad3d 82bf d662 3abf
000003f0: 3ac3 883d 89ac 01bf 3cc7 163f 4aef 1740
0.056108862 0.46084797 -1.4638617 -0.41978037 0.14787796 1.3873012 -0.6675003 1.2145782
0.45934707 0.4132327 1.0381002 0.57052374 0.058524568 -0.42348096 0.6791904 -0.6879417
-0.18187584 0.783649 -0.46408454 -0.5545968 0.8883237 0.3526429 0.091483384 -0.83063185
-1.0027672 -0.71203786 0.78952175 0.9146587 1.506431 -0.6199528 -0.33651367 0.41472843
-1.0765883 -0.5747318 0.83837295 -0.7498549 -0.39330763 -0.22024582 -0.24940635 -0.6174748
-1.0462444 0.0021907766 -1.7581244 -0.14739883 0.35655192 0.22730465 -0.5075985 -0.50892454
0.11769224 -0.62665427 0.028744904 -0.45872504 0.5805668 0.7956832 -0.33095434 -0.3380374
-0.07575549 -0.5318941 0.2555279 -0.77313423 -0.32804173 -0.22222704 0.74930346 0.48867065
0.2587818 -1.0218799 0.23959842 1.4836644 0.43849662 -0.6992126 -0.42629832 0.13842787
-0.16646717 0.93187284 -0.01687573 -0.49763918 1.258856 -0.550036 0.8221715 -0.0842731
-1.3984035 0.9301653 -0.15263548 -0.337163 -0.41709715 -0.17786397 -0.03601084 -0.07452182
-0.23109454 0.9448993 0.7020212 0.5903888 0.77122575 0.19191432 0.3861687 -0.22456647
0.68689084 -0.8357301 0.8032062 -0.19841996 -0.085361354 -1.0595431 1.0470233 -0.104459405
-0.038348414 0.5100423 0.96441936 -0.82057804 -0.7100462 0.9031903 -0.3624973 -0.33881238
-0.47758555 -0.76972073 0.6553344 -0.60499305 0.42090023 -0.92571217 -0.6297535 -0.71142167
-0.032590874 0.289124 0.0882391 0.0947757 -1.5185311 -0.22462879 0.37914267 0.5702223
1.1342424 1.7964383 0.07348339 0.58353287 0.248489 -1.4552321 0.8867192 0.8238957
-3.4528663 -0.37215313 0.56213284 0.46529812 -0.7453182 0.9517845 1.108378 -0.8961149
0.3834926 -0.30307093 0.6930589 0.2847418 -0.60045165 0.5419649 -0.51929754 -0.57120293
0.61882144 -0.15904397 0.76475406 -0.96909 0.9504929 -0.65531427 -0.24933681 2.5452073
0.7232006 -0.63366485 -0.42329225 -2.7070632 -1.1498479 0.76096016 0.096535265 -0.21211658
-0.11228462 1.4581853 1.0052644 0.4347836 -0.2309654 -1.3738718 -0.45852843 0.34885627
-0.8909547 -1.1101218 -0.02556621 0.39536956 0.6615556 1.7892762 0.50827587 1.1301512
-0.17324276 -0.45362613 0.2158611 -1.4198608 0.060845524 0.68837744 -0.6976011 -0.71073943
0.26915884 -0.6556241 0.23893525 0.35863695 -0.11043436 -0.1845294 -0.54887503 0.81311977
0.23427343 -0.21576953 -0.048293687 -0.3610676 -0.85672724 -3.1717443 0.49565172 -0.04234527
0.9405048 -0.692387 1.0914738 0.070267096 -2.1371276 0.8271548 0.18651967 0.64042455
1.478437 -0.20856485 -0.120290704 0.79650897 -0.23016542 0.4304277 0.2592577 -0.5450246
0.41983506 0.3232287 0.7631336 -0.061366595 -1.325668 0.38884276 0.7285227 1.3240092
-0.30557242 1.1931672 0.21221161 0.15226725 -0.46759748 -0.4937268 -0.6750714 0.065537035
-0.5794751 -0.48609874 2.0808773 -0.31334937 -0.74360013 0.08056859 -0.35348845 -0.2577734
-0.012022434 -1.0404365 -1.0175072 -0.7280706 0.066778615 -0.5065389 0.5889776 2.37398

bias_ih_l0 f4 [400]
00000000: 1701 003e e583 0a3f a075 9d3e f63c 813e
00000010: 61b8 033f d992 973e 48eb af3e b98f 443e
00000020: 374e b63e 6e82 183e b35a 093f c506 263f
00000030: 9ed6 3d3e 06f2 8a3e 8031 8f3e b581 073f
00000040: 0b6c 953e 15d7 cb3e dfe7 4c3e 4b94 513e
00000050: f3b4 9f3e 064c 903e 1106 de3e 33b1 f33e
00000060: 463b 343f 71d9 1d3f d284 163f f069 3a3f
00000070: 5c72 173e a960 673f f564 4f3e 74e4 063f
00000080: 4fb9 d93e 3855 803f 02b7 023f 900d 823e
00000090: 0fb3 343e fddf af3d c7e7 f03e 94ee 903e
000000a0: e3ba b23e 9d00 b5bd 93b3 dc3d f8d3 9d3e
000000b0: 15bb d23e 8872 963e 785f 043e ab87 f23e
000000c0: 42b2 c13e 81a9 ae3e 4bde ac3e aabe 2b3e
000000d0: af9e cd3e 01a2 073f 6903 f93e b4a4 233f
000000e0: 6928 243f 3e63 6a3e c4b8 923d 4126 cd3c
000000f0: 073b f1bd cfbb db3c 0461 c93e e779 2a3e
00000100: bdd1 f93e 4996 1a3f 0101 de3e cbf2 a93e
00000110: 2e93 163f b248 c23e 1dd8 98bb 5ec0 db3e
00000120: fe62 133f 45e6 88bd 74c7 5e3e 5ec3 173f
00000130: 1b1f 143f 7f8a e83e e620 ab3e 85f4 1e3f
00000140: 8fa6 343f d568 e13b 852f db3e d2a1 343d
00000150: a9a2 253f 4aec d03e bf67 253f cbc0 193f
00000160: 12a4 4b3e 87b8 013d b19a 1a3d 0815 f23e
00000170: f34f 9b3e 327a a63c 2c6b d73e 4744 8d3e
00000180: c669 973e c7da 90bc 4cbc 923f cf0a 493f
00000190: 9afe 5f3e 94fa 0abe d6ed 20be 9d37 bc3e
000001a0: 54ed 773e 2b6e c13e c570 0fbe db1e 363e
000001b0: 158b 19bf aa84 ea3c ebe9 f13d ae34 88be
000001c0: b619 033e 7194 22be 8e80 cd3e 0c21 973d
000001d0: 427b bd3d 4cc1 48be c166 eebd 0b61 e0bd
000001e0: bef5 e33d 01df c63e 12cb a03d 938b be3e
000001f0: 6ab0 f93d e45a 8c3d 9b93 bbbd 6a9b b23e
00000200: 105e 46be ff71 f3bd 02f3 b73e 390a a13e
00000210: b0e5 a1be d132 3f3e e21e 49be bf8d e8bd
00000220: 1033 b7be 7f89 c4bd 5030 a93e 6e3b 73be
00000230: 7c07 793e e26f 213e 880d a7be 7d69 67be
00000240: 7b91 a73d 8269 9a3e c6e1 7c3e c875 bcbd
00000250: 0381 a23d 9072 8cbd f798 1d3e 7275 803e
00000260: 8839 863e 4e0b 8b3e cd50 0cbd 2a36 0a3e
00000270: a459 053e a4a5 733c 2913 a83e 21f5 dfbd
00000280: eb0e 823e cf05 a83e d39f 923e 6635 efbe
00000290: 8d01 a8bb 94bd dabd 321c 673d c1f3 05bd
000002a0: 1d30 98be f496 8d3e 367d 7dbd 4295 683e
000002b0: dfd3 833e 0aa6 2a3e f465 a1be c838 643e
000002c0: c972 5f3e 8725 c53d eb49 3d3e c08f 943e
000002d0: a6a5 c1bd 4e71 05bf 1801 933d 369c ba3e
000002e0: 65a7 01bf 4d5a 74bd a1d4 903c 700a 5c3e
000002f0: b85a 01be 5d41 283c f77d 833e 1ad3 643e
00000300: 0b8a aabe 67c1 d1bd 4e0c 803e 2325 0abe
00000310: 2f1c 1bbd e034 9cbe c0d3 a03e 1a84 193d
00000320: 7b1b b33e 0e6b 233c 7eb6 293e d233 c4be
00000330: 1fcb 4abe 3b2b 1ebf d17a a53e 21ee 033f
00000340: e22f 263e 5930 e13e ab04 0b3f ce30 0b3e
00000350: c4f4 2abf e13b a73d 8b76 143f 3303 bb3e
00000360: b02c 6f3e 8d07 2b3b bfba c0be fe8f 8a3d
00000370: 3638 24bf c164 cd3e a294 ffbe a554 d2be
00000380: 7c4d 00bf 5952 aebd d5a9 d2be 602d 1b3f
00000390: c2fc e93c cdfb e53d 8a0e 163f 8594 e83e
000003a0: 5e7f 4c3d 9b34 2dbe d00f 7ebc 7e8a 32bf
000003b0: 0eff 62bd a52b 4fbe d1c6 063f bf74 20bf
000003c0: 4a3c 61be 1c6e 163f 77fd 57bd 1118 153e
000003d0: 7110 a93e 3e2b eabe 0111 1abf baf1 5c3e
000003e0: 06c4 a33e 4317 b03d c345 abbd 4202 45be
000003f0: 9870 12bf e5b3 e73e c467 7f3e f077 5c3e
0.12500416 0.54107505 0.30753803 0.25241822 0.51453215 0.29604223 0.34359193 0.19195451
0.35606548 0.14893505 0.5365402 0.6485408 0.18538901 0.27137774 0.27967453 0.5293229
0.29183993 0.39812532 0.20010327 0.20466726 0.3119274 0.28183 0.43364003 0.4759613
0.70402944 0.61659914 0.5879642 0.728179 0.14789718 0.90381867 0.20253356 0.5269234
0.42524192 1.0026007 0.510605 0.25400972 0.1764643 0.08587644 0.47051832 0.2830702
0.34908208 -0.088380076 0.107764386 0.30825782 0.41158357 0.29384255 0.12927043 0.4736913
0.37831312 0.34113696 0.33763346 0.16771951 0.40160128 0.52981573 0.48635414 0.6392319
0.6412416 0.2288942 0.071641475 0.025042655 -0.11778837 0.026822953 0.3933183 0.16648065
0.4879283 0.60385567 0.4336014 0.3319305 0.5881833 0.37946087 -0.0046644346 0.42920202
0.57572925 -0.066845454 0.21755773 0.5928248 0.57859963 0.45418164 0.33423537 0.6209186
0.7056665 0.006878952 0.42809692 0.044099636 0.64701325 0.40805274 0.6461143 0.60059804
0.19886807 0.03167012 0.03774518 0.4728167 0.30334434 0.02032194 0.42073953 0.27591154
0.29572886 -0.017682446 1.1463714 0.7853212 0.21874467 -0.1357215 -0.15715727 0.3676118
0.24211627 0.37779364 -0.14007862 0.17785208 -0.5997785 0.028627712 0.118121944 -0.2660269
0.12802777 -0.15876938 0.40137142 0.0737935 0.09252025 -0.19604987 -0.116406925 -0.109560095
0.11130856 0.38842013 0.078512326 0.37215862 0.121918514 0.068532735 -0.09159013 0.34884197
-0.1937182 -0.118869774 0.35927588 0.31453112 -0.3162055 0.18671729 -0.19640687 -0.11355161
-0.35781145 -0.09596538 0.33044672 -0.2375314 0.24319261 0.15765336 -0.3262751 -0.22598834
0.08182045 0.3015862 0.246955 -0.092021525 0.07934763 -0.068577886 0.15390383 0.25089604
0.26215768 0.27157062 -0.034256745 0.13497224 0.13022476 0.014871035 0.32827118 -0.109354265
0.25402007 0.32816932 0.2863756 -0.46720427 -0.005127138 -0.106806904 0.056423374 -0.032703165
-0.29724208 0.2765423 -0.06188699 0.22713187 0.25747582 0.16664901 -0.31523097 0.22287285
0.21821131 0.096262984 0.18485229 0.29015923 -0.09455423 -0.52126014 0.07177943 0.36447304
-0.5064605 -0.05965643 0.017679514 0.21488357 -0.12632263 0.01026949 0.2568204 0.22346154
-0.33308443 -0.10241967 0.25009388 -0.13490729 -0.037868675 -0.3050909 0.31411552 0.037479497
0.34981903 0.009974254 0.16573521 -0.38320786 -0.19804047 -0.61784714 0.32320264 0.5153523
0.16229203 0.439822 0.54304 0.13592836 -0.6677973 0.08165718 0.5799338 0.36525878
0.2335689 0.002609703 -0.37642476 0.067657456 -0.6414827 0.40115932 -0.49918085 -0.41080204
-0.5011823 -0.085118 -0.41145197 0.6061611 0.028562907 0.11229668 0.58615935 0.4542581
0.049926154 -0.16914599 -0.0155067 -0.6974257 -0.05541902 -0.20231493 0.5264712 -0.6267814
-0.21995655 0.58761764 -0.052731957 0.14559962 0.33020356 -0.45736116 -0.60182196 0.21576586
0.31985492 0.08598187 -0.08362915 -0.19239143 -0.57203054 0.45254436 0.24941927 0.21530128

bias_hh_l0 f4 [400]
00000000: c40a 6c3d 5e54 cb3e 70cb 983e 9c70 7e3e
00000010: 7d72 1a3f fc9f 893e c2e1 b33e f97f 783e
00000020: f5e2 cf3e 7a92 683e d93b e63e 434d 2c3f
00000030: d2d9 163d 58aa b93e 54b2 a13e 5801 083f
00000040: f1cf 903e 5163 b63e 9fbd eb3c 392b 243e
00000050: 974b 943e a0a3 a93e ff0c f43e 72a3 143f
00000060: 34bb 423f 9fc2 053f 50e4 0b3f 9a89 2d3f
00000070: 2876 df3d c30a 443f 1a47 8b3d c121 223f
00000080: 61b5 0f3f d7c3 723f 536a 163f 2161 053e
00000090: 7232 c33d 82ab 2a3e 8f96 dd3e d6a9 a23e
000000a0: bc8f 8d3e fcc1 87bd 5592 863d 2091 ab3e
000000b0: 2f3b d53e 668e a23e 2f39 fe3d 818c 023f
000000c0: e083 c03e 8ff9 b23e cf37 e23e f3ec 883c
000000d0: 84a4 b53e 1129 053f 4e05 233f e8eb 243f
000000e0: 65e1 193f 8e91 c63d 9b0c 2d3e 31ae 45bc
000000f0: e002 8ebd c8cd 4f3b ae83 c33e 48f7 2c3c
00000100: f866 1a3f 19c0 343f 6385 af3e 0b78 aa3e
00000110: f2e5 363f de90 9f3e 48b9 7fbd 84bc e93e
00000120: cb56 033f 04d5 3d3c 0e93 413e 3fd3 f83e
00000130: 42cb 0b3f 1db6 0c3f 8a83 a03e f7a1 013f
00000140: 1282 1a3f ac05 8dbd 2703 cd3e 410a 383d
00000150: ed6e 1e3f 7c48 903e b3dc 303f 1f63 3c3f
00000160: 2836 cc3d 01c4 b23d 8872 f23d 66f5 a23e
00000170: 2ff0 be3e 70ba d13d 0aec a83e 8745 373e
00000180: bc08 993e a7dd 163d c44e 943f b10d 2b3f
00000190: 31c7 cf3d a9fe 8bbe 2b87 36bd 7792 a33e
000001a0: aa32 ed3d b95e 903e f20e 6dbe 2332 793e
000001b0: 3808 27bf ee20 92bb d43d 4a3e c86c 4bbe
000001c0: 9948 d43c 81b2 8cbe ecc2 9d3e b0a0 033e
000001d0: d983 0bbd 40d2 fdbd c4cc 063d 2988 8ebe
000001e0: ac58 753e ab9c 883e 4065 613e 134f c83e
000001f0: 821a 913e 77fc 113e 9f3d 813c 2a00 8d3e
00000200: d8d5 2ebe 3f6a 09bd a0c4 be3e 3d97 bb3e
00000210: 8c5d cdbe 7830 923e fa34 6bbe 5cf3 e13c
00000220: 86f5 c1be de79 e63b 5643 e53e 4380 30be
00000230: 06c9 533e f97c 7a3e 311b 83be 894c 81bd
00000240: 92d5 6dbc de40 903e 52e7 4e3e c4d5 89be
00000250: 64ab 273e 724f 09be 4c35 9a3d bc04 923e
00000260: 9bb6 a73e f0ac 853e 3588 93bd 3ec0 693e
00000270: d256 543e 350e de3b d4be 4f3e 61e1 2bbd
00000280: 533f 883e 2b9c 9e3e 3173 943e 114b 00bf
00000290: 26b8 acbc e55b 59be a256 13bd 74e9 01be
000002a0: fad6 73be c125 5e3e e273 71be 64d3 713e
000002b0: 66ac 5b3e 1127 3a3d d5bb efbe 092b a83d
000002c0: ad29 583e 2a3a 9a3d 5f69 0f3e 6dcc 513e
000002d0: 8a16 3abd 743e bdbe bb32 52bb d452 893e
000002e0: 2abf b5be 98bc 96bd 7d3e c7bd c816 a53e
000002f0: 346b e1bd 5828 abbc 92e7 6e3e 7ea9 ae3e
00000300: 31fd b2be 640d 3cbe ecd7 cd3e 56cb 81be
00000310: a2f0 8dbd a8f5 c2be 72c3 b43e 2c23 473e
00000320: 7b94 b73e 6262 dc3d 2cfe 7a3e 3089 e9be
00000330: 1ee8 1dbe 477a 23bf 2326 993e 84f1 103f
00000340: a886 623e cb37 ec3e 496e f73e cde9 1a3e
00000350: 1bb7 0fbf 62a8 023c 1028 0e3f b3ce 833e
00000360: 8f58 8a3e f910 cc3d f7bb c7be 38b0 973d
00000370: fa6e 2fbf 3b63 bb3e ebf6 06bf 3f2f 8bbe
00000380: 4167 1cbf d5f1 b2bd b7aa cabe 11c4 353f
00000390: eb2a c53d 46a0 053d d1aa 343f ddd7 0a3f
000003a0: e70e 073e a7fe 68be 059c 4f3d 26b7 08bf
000003b0: 1843 2bbd 7791 9fbd 6fdc 093f 219e 32bf
000003c0: 6e2a 58be 521f 143f bbd6 553d ad68 843e
000003d0: 53bc b93e 589f a1be 9514 1ebf 0dd9 3e3e
000003e0: 0408 8e3e 8fa5 b53d 1903 57be 5fd1 82be
000003f0: 2cda 0dbf d72c d43e 10df 373e 5c99 1d3e
0.057627454 0.39712805 0.2984271 0.24847645 0.60330945 0.2687987 0.35133177 0.24267568
0.40602842 0.22712126 0.44967535 0.6730539 0.036828823 0.36262774 0.31581366 0.5312705
0.28283647 0.35622647 0.028776942 0.16032113 0.2896392 0.33132648 0.47666165 0.580619
0.760669 0.52250093 0.5464525 0.6778809 0.109112084 0.7657892 0.06800671 0.63332754
0.5613614 0.9483008 0.5875599 0.13025333 0.09531106 0.16666988 0.4327893 0.317702
0.27648723 -0.066287965 0.06570879 0.3350916 0.41646716 0.31749266 0.12413251 0.5099564
0.37600613 0.34956023 0.44183204 0.016714549 0.35477078 0.5201579 0.6367997 0.64422464
0.6010955 0.09695731 0.1689934 -0.012065456 -0.06934142 0.0031708349 0.381864 0.010557003
0.6031337 0.7060562 0.34281453 0.3329471 0.7144462 0.31165212 -0.062432557 0.45651639
0.5130431 0.011586431 0.18903753 0.48598668 0.5460702 0.5496538 0.31350356 0.50637764
0.6035472 -0.068858474 0.40041468 0.044931654 0.6188801 0.281803 0.6908676 0.73588747
0.09971267 0.08728791 0.11838251 0.3182785 0.3729262 0.10240638 0.32992584 0.17897616
0.29889476 0.036832478 1.1586537 0.66817766 0.101454146 -0.27342728 -0.0445625 0.3194768
0.11581929 0.28197268 -0.23150232 0.24335532 -0.65246916 -0.004459492 0.19750148 -0.19865716
0.025913524 -0.27479938 0.30812776 0.12854266 -0.034061287 -0.12393618 0.032910123 -0.27838257
0.23959607 0.26682028 0.2201128 0.3912283 0.28340536 0.14256464 0.015776454 0.27539188
-0.17073762 -0.03354859 0.37259388 0.36638823 -0.40110433 0.28552604 -0.22969428 0.027581863
-0.37882632 0.0070335707 0.44777936 -0.17236428 0.20682153 0.24461736 -0.25606683 -0.06313426
-0.014516251 0.2817449 0.20205429 -0.26920903 0.16373974 -0.13409212 0.07529697 0.28519237
0.32756504 0.26108503 -0.07203714 0.22827241 0.20736244 0.006776596 0.20287639 -0.041962985
0.26610813 0.30978522 0.28994134 -0.5011454 -0.021083903 -0.21226461 -0.03597129 -0.12686712
-0.23812476 0.2169409 -0.23579362 0.23615795 0.21452484 0.045447413 -0.46822992 0.08211333
0.21109648 0.07530625 0.1400504 0.20488138 -0.04543165 -0.3696171 -0.0032073695 0.26821005
-0.3549741 -0.0736019 -0.097287156 0.32243943 -0.110067755 -0.02089326 0.23330525 0.34113687
-0.34958795 -0.18364483 0.40203798 -0.25350446 -0.06930663 -0.38078046 0.35305363 0.19447011
0.3585547 0.107609525 0.24511021 -0.45612478 -0.15420577 -0.63858455 0.29911909 0.56618524
0.2212168 0.46136317 0.48326328 0.1512825 -0.5613877 0.007974716 0.5552988 0.25743636
0.2702069 0.09964175 -0.39010593 0.07406658 -0.6852871 0.36599144 -0.52720517 -0.27184483
-0.6109505 -0.08737532 -0.3958337 0.710023 0.096273266 0.03262355 0.70573145 0.5423563
0.13189279 -0.22753392 0.0506859 -0.5340446 -0.041812032 -0.07791417 0.5385198 -0.69772536
-0.21109936 0.5786029 0.052206736 0.2586111 0.36276492 -0.31566882 -0.61750156 0.18637486
0.2774049 0.088694684 -0.20997275 -0.25550362 -0.5541103 0.4144046 0.17956185 0.15390533

weight_ih_l1 f4 [400, 100]
00000000: ef86 e0be bfc9 073e d3ec b4bf 963a 5a3e
00000010: e22f 423e 72b7 b13d c1af af3e 9729 d73d
00000020: c237 3d3f 407c 0e38 1e3f 1c3e 8b12 eabe
00000030: 377b df3e 8f6d 923d 49ab 95bd 9d19 a7be
00000040: 4041 1ebd 6ab4 883e 680d 413e e1a9 e6bc
00000050: 9395 053f ef13 563e c851 273d 5dde d23d
00000060: 5266 8e3d 3e95 963f 0ee1 fbbb 0e31 37be
00000070: a39f ce3c fe13 c2bd 4fa5 ecbd 248c 3c3e
00000080: fceb f13e 2fec 8cbe 302a 583e 597d 5c3d
00000090: 1ad1 07bf 377f 433f 839d c03c 7e37 843f
000000a0: fd87 fe3e 705f 93bd 67c8 233f a8b5 a5be
000000b0: 736d aabe 75ea 603e 058b 0ebe bb3b f53e
000000c0: d866 08bc 1ec6 c6be 3648 9abd 7ccc 5ebd
000000d0: 34a4 1c3e 6317 12be 346b fd3e 377d 1e3f
000000e0: 4e67 1fbf 1d09 b73e 788d a63e 0099 9f3e
000000f0: 29ee a33e d65b 92be d6bf fb3d df0c 923f
00000100: 7231 bd3d 1208 a03d 0921 15be 13fc 86be
00000110: 89db 6ebf cf74 ff3d 481d 1cbe a604 a43c
00000120: bd6f 57be 0e9e 49bf 5446 e6be 15be 19bd
00000130: 33c0 423e 404c 8abe 1119 ac3e 6e46 b13e
00000140: bd4e 843e 8631 b13c 2efd 95be 0903 fc3d
00000150: 17f8 22bf 56da 953e b3f3 803f 7665 d63d
00000160: c6d2 963e b0b8 3b3e dfa8 773e f21a a2bc
00000170: 917e 983f 9ac6 3ebf a859 c7bd 526b 21bb
00000180: dbd1 1bbe 6950 213f 3f94 42be cd64 19be
00000190: 70ed 253e 8448 37be e0af 193f 810f 3abd
000001a0: 0b93 643c 7a99 e63e 7711 bb3e 8a7f eabe
000001b0: 745f bfbe a6bc c23e 0e98 eabb a182 b63e
000001c0: 2635 6b3e a520 2bbe e997 963e b400 3e3e
000001d0: e002 c33d dd09 823f 0996 3b3e 6d54 633e
000001e0: 62c1 53be d8d7 5f3e 0ca4 e9bc 91d1 bc3e
000001f0: 9f3f c73e 140a e4bd a2de 84bd 36de 03be
00000200: b961 c8be 4172 363e 9592 ae3e 6014 ac3d
00000210: 46d8 0abf b2b6 a7be 5aca 043f 3c5c 3ebf
00000220: 4e6d 8a3f b36f ed3d 6c39 c63e c275 f8bd
00000230: ddbc a33d 7da2 0fbf 11bd 72be f4c8 7cbe
00000240: 8ed8 cdbc 4d53 a3be fd8b 803e 6cc4 f33d
00000250: ac09 85bd 6694 29bf d5a0 1bbe 2f43 64be
00000260: 5111 473f 350d babe f564 d03e 6520 b23e
00000270: 7123 64bf 38c5 583e 2609 1d3f 44c6 463f
00000280: dc5f a53e 8ec2 f33d d070 183c add1 f6bc
00000290: 746a 2bbe 84f8 05bf 37b3 0abf ffac 1e3e
000002a0: 4c83 f9bd daf2 14be ab01 173f 2bbd 5dbe
000002b0: bd93 5d3e abcd 91be 15d5 27bf 26f0 903e
000002c0: ec66 8d3e 276e 1bbf c5d5 133e f10e c93e
000002d0: c38d 413e c2a9 2fbf f4bb 03be 34ac 693e
000002e0: 6dd1 5c3f e2b6 1cbe 8ea2 5e3f c245 9e3e
000002f0: 8005 4dbe a5ca 493f 39e4 c8be 85cd 4abf
00000300: 45d3 f93e 5542 d83e d6c7 a0be 5553 77be
00000310: 2338 01bf 51d9 f0be 6661 aabc d9c1 4fbe
00000320: b791 a03d 2101 d4be eab7 12be 0f01 59bd
00000330: 2bda 3b3e fcfe 563f 83a8 6dbe 6530 c93e
00000340: 6b41 753e ffc6 d43e d42a 163f 2cf4 74be
00000350: 203f cabe fe39 0a3f cd91 443e 40c7 2cbe
00000360: b830 a6ba 1352 5d3e fb74 38bd fdfd ccbc
00000370: d7ad b23e 826d 943e 68b6 55bd 57d5 ca3e
00000380: 9432 8e3e ac9f fdbe 2c0a 6b3e 5eb3 1ebf
00000390: eddb f7be 722d 263e 2b5f 14be f376 bcbe
000003a0: bffb 333f ab59 aebd 3b9c 2d3e 7c34 dcbd
000003b0: 2168 5ebd 3099 e63d 9985 b2be 0a4c 2dbf
000003c0: 50fa eebc fec4 efbe 679a d73c f8dd 5a3e
000003d0: 7d8a c8be abf8 e3bc 447b b43e d3e2 a2bc
000003e0: 87b6 5c3e c633 6cbe a29d 8c3d 104f 2b3e
000003f0: 15f2 e8bd 0362 0b3f dc01 423f 296d e4be
-0.43852946 0.13260554 -1.4134773 0.21311411 0.18963578 0.086775675 0.34313777 0.105059795
0.73913205 3.3971155e-05 0.15258452 -0.45717272 0.43648693 0.07149803 -0.07308061 -0.3263673
-0.038636446 0.26700145 0.1885277 -0.028157176 0.5218136 0.20906042 0.040849477 0.10296319
0.0695311 1.1764295 -0.0076867407 -0.17889807 0.025222605 -0.094764695 -0.115549676 0.18412834
0.47250354 -0.27523944 0.21109843 0.05383048 -0.5305344 0.7636599 0.023512607 1.0329435
0.49713126 -0.07195938 0.63977665 -0.32365155 -0.33286628 0.21964438 -0.13920219 0.47897133
-0.008325301 -0.38823026 -0.075333044 -0.05439423 0.15297014 -0.14266734 0.49495852 0.6190981
-0.62267005 0.3574914 0.32529807 0.31171417 0.3201764 -0.2858569 0.12292449 1.1410178
0.092379466 0.07814039 -0.14563383 -0.26364192 -0.93303734 0.12473451 -0.15245545 0.020021748
-0.21038719 -0.787568 -0.4497553 -0.037534792 0.1901863 -0.270113 0.33612874 0.34624046
0.25841323 0.02163006 -0.29294723 0.123052664 -0.63659805 0.2926814 1.0074371 0.10468571
0.29457682 0.18332171 0.24185513 -0.01978824 1.1913625 -0.7452179 -0.097338974 -0.0024630618
-0.15216772 0.6301332 -0.19001864 -0.14979859 0.16203856 -0.17898756 0.6003399 -0.045424942
0.013951073 0.45038968 0.36536762 -0.4580043 -0.37377512 0.38034552 -0.0071592396 0.35646537
0.22969493 -0.16711672 0.29412773 0.18554956 0.09522033 1.015926 0.18318953 0.22200175
-0.20679238 0.21859682 -0.028520606 0.36878636 0.38915727 -0.11134735 -0.06487776 -0.12877735
-0.39137056 0.17817022 0.34096208 0.08402324 -0.5423626 -0.32756573 0.51871264 -0.7435949
1.0814607 0.115935706 0.38715684 -0.121318355 0.07995007 -0.5610731 -0.23704936 -0.24686033
-0.025127675 -0.3189949 0.25106803 0.11902699 -0.064959854 -0.66242063 -0.15198071 -0.22291254
0.777608 -0.363382 0.40702024 0.3479034 -0.8911658 0.21168983 0.61342084 0.7764628
0.32299697 0.11902343 0.00930424 -0.030129278 -0.16739827 -0.5233233 -0.5417971 0.1549568
-0.12183246 -0.14545766 0.5898692 -0.21654193 0.21638389 -0.28477225 -0.6555951 0.2830822
0.27617586 -0.60714954 0.14437015 0.39269212 0.18901734 -0.68618405 -0.12864667 0.22819597
0.8625706 -0.1530414 0.8696679 0.30912596 -0.2002163 0.78824836 -0.3923662 -0.7921985
0.48793998 0.42238107 -0.31402463 -0.24152882 -0.5047628 -0.470408 -0.020798396 -0.20288791
0.07840293 -0.4140711 -0.1432797 -0.052979525 0.18344943 0.83982825 -0.23208813 0.39294735
0.23950736 0.41558072 0.586591 -0.23921269 -0.39501286 0.5399474 0.19196244 -0.16872883
-0.0012679314 0.2161334 -0.045033436 -0.025023455 0.34898254 0.28989798 -0.05217591 0.3961589
0.27772963 -0.49535882 0.22953099 -0.6199244 -0.48409978 0.16228274 -0.14489429 -0.368095
0.7030601 -0.085131966 0.16954128 -0.10752198 -0.054298524 0.11259687 -0.34867552 -0.6769415
-0.029172093 -0.4682998 0.026318742 0.21373737 -0.39168158 -0.027828535 0.35250294 -0.019883549
0.21554004 -0.23066625 0.068660036 0.16729379 -0.113742985 0.5444643 0.7578409 -0.44614533

weight_hh_l1 f4 [400, 100]
00000000: 77df e13e cd2c 863f 5647 be3e 7272 6fbe
00000010: 51e8 913e 813f 97bc c015 fabe 6083 3f3f
00000020: 2a8a 24bf d05e b73d b489 00bd 0be1 babd
00000030: d608 dbbe 862b 4fbf 5dbe 713e f249 93bd
00000040: dc7b 50bf f683 3d3e b25e 633c 605e 18bf
00000050: 00c8 7b3f f6b2 6b3e 7855 3c3d d12b df3e
00000060: 330d 093e a682 0abe 6e55 3dbf 10e3 62bd
00000070: 722d 2a3d 90f2 17be 5775 29bd 725b 153f
00000080: 926d f5bd a557 6ebe 658e 403f ab09 453d
00000090: ea2d b5bf c6ef 213e a376 0a3e 0c42 d6bd
000000a0: fc03 1b3f b77a b1bd bca4 7d3d f134 88be
000000b0: 0f80 893e be8d 3abf 68e8 a23c 1caf 523f
000000c0: 24f9 5c3e 525b 5a3d d734 81bf 29e3 aa3d
000000d0: 5c3e 43bd babc 0c3d 224b a7be c60a ee3e
000000e0: 5ed2 f3be d2f8 a4bf 8d80 853e 804e 32be
000000f0: 767a 23bd 9aa5 93be 7ac3 97be 82a1 1c3d
00000100: b610 3abf 31f3 51bd ad4e c3be 1a33 86bf
00000110: 30b4 3abe 5867 4e3d 68fc efbd 3f6b 263e
00000120: 687b fc3e e78d 173f d4ca 043e 5089 b9be
00000130: 35d0 3a3d 2b51 bbbe fe81 00bf ad26 d7be
00000140: 7862 cd3e 3fef 84be 0b80 2d3e 2af2 83be
00000150: 83f9 ad3f 1abf 323d 61a5 903d c47a 6fbf
00000160: d529 113e 4da1 2b3e 317e 00bf 2835 0ebf
00000170: bd03 44be 1640 3f3f 32bc 083e dc4f 05be
00000180: b4c5 b0be bcee 723e b5e5 b53d 6382 abbe
00000190: 3272 e7bc 56f4 ac3f 5ba6 01be 9a63 83be
000001a0: 1d39 893d b71f 113e fa55 42be 70b8 1e3e
000001b0: ee92 6b3d dbdc 463d 11bd f93d 2256 4dbe
000001c0: b691 14be daa0 9e3d a094 d139 933d aa3e
000001d0: 31ea 223f 2257 cfbe 7e99 10bc 637a 7b3e
000001e0: f456 a8be f556 81bd f54a d2bd a18d 89bd
000001f0: dd72 1dbe f175 b2bd 716d 4dbe 82fa 6f3d
00000200: 4182 c2bd 41d8 bb3d 6876 b6be c3c6 d03d
00000210: 388b ec3d efd9 16bd 4bfd 013e 135f cbbe
00000220: 3ee7 8f3e 0bc3 01be 849a 0ebd 8969 cfbe
00000230: c0f1 86be 9006 7cba 945d 833d c767 803e
00000240: 8543 863e 51c3 893e 05ff 2abe 99b6 823d
00000250: 8a18 38bd f190 0a3e a392 3bbf c711 efbe
00000260: 5a64 9abe d297 6a3d d95f 89be a91d cbbc
00000270: 8624 233e b994 2b3e e985 8abe a3a8 43bd
00000280: 0852 8fbf d4e4 40bd 8cdf 14bd 8927 cdbd
00000290: dee8 2a3e 4ff3 cabc 3417 98be 9328 613e
000002a0: b3e5 0f3d fb3d a0be a63e 323f 8ad5 0e3f
000002b0: 8b00 7d3e e962 dabe d584 23be 4c7f 2abf
000002c0: 8651 243e 6c91 0dbf 3d71 483f 8dfd 27be
000002d0: 878d 8f3c 0ae4 84be 419f 903f 6afe 3c3e
000002e0: 2b4d c53e 79b0 ccbd c02e 1fbd 5bc9 a13d
000002f0: 4425 343e 82f7 cd3d 171e fdba 130c e23d
00000300: 73f2 113e efc2 a93d 3c17 3b3a c7e1 0b3e
00000310: 837d 01bc b3bd 0bbe e9e5 183e 79d0 cdbb
00000320: 041f be3e b5ad c23e b9ae f1bf 8c8a ad3e
00000330: 2fba 19bf 8c32 80be c98f cebf ff33 f03d
00000340: 5033 4e3e 988c b2be dbd4 15bf be39 e13e
00000350: ffc0 e63e 5a25 223f 9473 1dbe c53f 2b3f
00000360: 3052 4d3e 58ec 8d3e 746e cdbe 22cc b53d
00000370: d2ec a5be bf55 bd3d d448 65bf 02d1 203e
00000380: 8b3f 2f3e cd67 c6be 7262 37bf cc92 b33e
00000390: 944b e03c 59e2 9abe eed4 f4bd f8b5 04be
000003a0: 0f55 1e3c 7b8a a93e 514b 45bf a352 bfbd
000003b0: ae62 35be f43a edbe 9d43 a4be 6ddd a6be
000003c0: cb50 1abf 3d9a 48be f378 3cbf 85e3 553f
000003d0: 6658 ce3d f567 e8bd e043 4d3e 2e12 98be
000003e0: 0e8f 5bbe d223 4abe 0548 a23e 5258 b9bd
000003f0: 0835 723e 32ce aa3e f942 273d 48a2 2fbf
0.44115803 1.0482422 0.371638 -0.23383501 0.28497556 -0.018462898 -0.4884472 0.7480984
-0.6427332 0.08953631 -0.031381324 -0.09124955 -0.4278018 -0.80925786 0.23607774 -0.07191838
-0.81438994 0.1850737 0.013877558 -0.59519005 0.9835205 0.23017487 0.045979947 0.43588117
0.13383941 -0.13526401 -0.7395848 -0.055392325 0.041547246 -0.14838624 -0.04137167 0.5834266
-0.119837895 -0.23275621 0.75217277 0.048104923 -1.4154637 0.15814123 0.13521819 -0.10461816
0.60552955 -0.08665984 0.06192468 -0.2660289 0.26855513 -0.7287253 0.01988621 0.82298446
0.21579415 0.053309746 -1.009425 0.083441086 -0.047666892 0.03435967 -0.3267451 0.46492594
-0.47621435 -1.2888434 0.2607464 -0.17412758 -0.03991171 -0.2883728 -0.29641324 0.038239963
-0.7268175 -0.051257316 -0.38145962 -1.0484345 -0.18232799 0.050391525 -0.117180645 0.16251849
0.49312901 0.592009 0.12967998 -0.36237574 0.045608718 -0.36585364 -0.5019835 -0.42021695
0.40114188 -0.2596378 0.16943376 -0.25770694 1.359177 0.04363928 0.070627935 -0.935467
0.14176114 0.1676075 -0.5019255 -0.5554986 -0.19142051 0.7470716 0.13353041 -0.13018745
-0.34525836 0.23723882 0.08881704 -0.33497915 -0.028252695 1.3512065 -0.12661116 -0.25661927
0.067003466 0.14172255 -0.1897811 0.15500045 0.05751317 0.048550468 0.12194265 -0.20052388
-0.1450871 0.07745524 0.0003997432 0.33250102 0.636386 -0.40496165 -0.008825658 0.24558406
-0.3287884 -0.06315414 -0.10268203 -0.06716467 -0.15375848 -0.08713902 -0.2006128 0.058588512
-0.094975 0.091721065 -0.35637212 0.10194161 0.11549991 -0.03682893 0.1269428 -0.39720973
0.2810611 -0.12672059 -0.034815326 -0.40510204 -0.26356316 -0.0009614015 0.06414333 0.25079176
0.26223388 0.26906827 -0.16698845 0.06382484 -0.044945277 0.13531853 -0.73270625 -0.4669325
-0.30154687 0.057273693 -0.26830938 -0.024794417 0.15931901 0.16755952 -0.2705529 -0.047768246
-1.1196909 -0.047093228 -0.036346003 -0.10017306 0.16690394 -0.024774222 -0.29705203 0.21988134
0.035131168 -0.31297287 0.69626844 0.55794585 0.24707238 -0.42653587 -0.1596864 -0.6660049
0.16046724 -0.5530002 0.7829779 -0.16405316 0.01752354 -0.2595523 1.12986 0.18456426
0.38535437 -0.09994597 -0.038862944 0.07899734 0.1759234 0.10056974 -0.0019311336 0.11037459
0.14252643 0.08289134 0.0007136946 0.13660346 -0.0079034595 -0.13646583 0.14931454 -0.0062809554
0.37133038 0.38023153 -1.8881446 0.33894765 -0.6004972 -0.25038564 -1.613763 0.117286675
0.20136762 -0.3487289 -0.58527917 0.43989366 0.4506912 0.63338244 -0.15376121 0.6689418
0.20050883 0.27719378 -0.40123332 0.08876826 -0.32407242 0.092448704 -0.8956425 0.1570473
0.17114083 -0.3875107 -0.7163459 0.35072935 0.027379788 -0.30250815 -0.119546756 -0.1296004
0.009663834 0.33113465 -0.7706805 -0.093419336 -0.17713425 -0.4633404 -0.32082835 -0.3259081
-0.6027953 -0.19590087 -0.73622054 0.8355029 0.100754544 -0.11347953 0.20045424 -0.2970137
-0.2144129 -0.19740227 0.31695572 -0.09050049 0.23653042 0.3336044 0.040835354 -0.68606997

bias_ih_l1 f4 [400]
00000000: f7d6 6c3d 0b43 0a3e ee0c 823e 07bf c0bc
00000010: 70da 6a3d 6fc5 6f3e b0c6 d13d 6ee8 293a
00000020: 2579 243e 1197 933b 9180 c93b 5e71 c6bd
00000030: cb6f ae3d 3cbb 653d 5afb 903e 6287 7bbe
00000040: c67b d13e 566d 503e b0cd 203e f698 203d
00000050: 9679 1dbe 1e64 973e 32c1 c93d 0444 b93c
00000060: f722 f43d 68e7 3e3e 085a f53d 8d6c 4f3e
00000070: abfc 2a3d 77ea de3e 8470 ef3c cbdd 963e
00000080: 87c1 263e f5ec c43d 1f9e 103f 62c6 e7bb
00000090: 9846 83be 5f0c 753d de60 023d 36b2 7f3c
000000a0: 884f 0d3e e44b 9b3c 7c26 d8bd 58f4 303e
000000b0: 5ba5 813d 158b 20bd 0d09 943d 1e46 393e
000000c0: 8860 9cbd 5c3a 633e 65d9 473e ea5f f63d
000000d0: 294d 87be 6a8c a23e 758a 523e d799 423e
000000e0: 4e16 87bd 9fdb d13d 47d4 24be 763a 313b
000000f0: 3026 d83e 76ca b7bd 2d8c 233e c3c3 ad3d
00000100: 072a 683d 76a6 383e c3d4 003c a2d8 acbd
00000110: 3e0a a33e 45cf 913e b204 b73d da74 fe3d
00000120: a694 1d3e 21a9 ac3e 8cfc 073e a442 1bbd
00000130: c8e6 3d3d 4d1c 29bd 7575 ca3e 9561 293e
00000140: 44ae a0bc db54 193e 2214 01bd d10d b63d
00000150: c62c db3d d36f ae3d 22b8 db3c 376f 473e
00000160: a354 bc3d 0828 c03d 01a5 4dbe dc85 943c
00000170: 73ad 633e aed3 903d e08a 57be 8bcc 393e
00000180: 7a46 b1bd e8c4 e9bc d8c0 e53e 10df 66bd
00000190: 53ab 6b3e 8655 523e 6109 173d 802d 533e
000001a0: fa70 153e f2d3 b9bb 06cc a33d 0a4a 43be
000001b0: 582d d73d 3bbf 5c3e 5e21 2e3e f1fb d0bc
000001c0: 98fb 2e3e 9908 0a3e 0d12 43bc 7409 1e3d
000001d0: a506 193e 0bba 5b3d d7c9 803d 8ad9 40bd
000001e0: fd55 933d 1ff4 163b d08d 943d b91f 15be
000001f0: 405a f93b b0ef afbc b4b1 9ebd 6864 383d
00000200: 8166 e53c 04d1 b53d fd89 cb3d e867 08bb
00000210: a06e 193d 2320 c33d b4c8 0e3c c246 573e
00000220: 2b61 7dbe d24d 083d 193d c43d c86d 72be
00000230: 7b74 2c3e 1bfa 13bc 849c ca3d 2db3 a6bd
00000240: 2f37 9b3c 9b6f 103e 4886 b83d cdab 1e3d
00000250: b12f 113e 7654 1f3d eb09 81be 1302 09be
00000260: c07c c23d 91d5 463e 793e d43d 45d4 293d
00000270: 2cdb 5f3e 1471 1c3c ff7a 79bd 0df3 223e
00000280: d988 68be af04 cc3d ddbb 8e3d 9903 1c3d
00000290: 8984 e73d b170 9a3d 731b f8bd 85ab 99bd
000002a0: 1497 793d 279e 503e b5db 8bbe 348b cbbc
000002b0: ed77 1d3e cf71 80bd 4863 053e 97c0 193e
000002c0: 2d07 c3be 81da ff3d 7724 973d db9a f73d
000002d0: 9c49 093e d550 2c3e ed18 31be 55f7 163c
000002e0: 1b80 9c3d 7143 453e c410 e93d cf59 6fbe
000002f0: 8cb1 b33d b4d3 0f3e 66ea 82bc 1f9a be3d
00000300: 515d 543b 39d7 2f3e b330 203e 7e69 f7bc
00000310: aea0 65bd a39b 193e 41f8 9b3e d3c6 be3d
00000320: aa1c 3ebe 37e8 18be 63a6 803e 46b0 06be
00000330: d4d4 473e 8d29 a1bd ab45 673d 339c 203e
00000340: dd9b 25bd a88a 613e e666 373d 2eb5 babe
00000350: 345e 2fbe f696 12be 7efb 863e 414e 38be
00000360: c41f 5dbe c6dc edbd aa97 2ebe ac74 3bbe
00000370: 407d ab3d 3f01 03be 9949 623e 9618 4bbe
00000380: 2a13 063e b341 9d3d 8898 0b3e 9d9a 31be
00000390: fa5e 4bbe 8b27 9c3e ebc6 28be c352 873e
000003a0: 9685 363e c9b1 43bd b36c 64be c897 c3bd
000003b0: 05d7 bdbc 399d e03d cff1 303e ff93 babd
000003c0: 4371 e73d dcf2 3c3d 16bd 51be 1648 fabd
000003d0: dd7e 203e 46ce 63be 3ee1 40be 3ca7 6f3e
000003e0: dc70 3d3e f0f8 52be 60e7 253e ec11 cdbd
000003f0: 4499 41be 9d53 3cbe a6d7 453e 66af 19be
0.057822194 0.13502137 0.2540049 -0.023528589 0.057337224 0.23415159 0.10242975 0.0006481473
0.16061838 0.0045040925 0.0061493595 -0.09689592 0.085174166 0.056086764 0.28316766 -0.24563363
0.40914744 0.20354208 0.15703464 0.039208375 -0.15378413 0.2956857 0.09851302 0.02261544
0.119207315 0.18642962 0.11980063 0.20256253 0.04174487 0.43538257 0.029228456 0.2946609
0.16284762 0.096155085 0.56491274 -0.0070732096 -0.25639796 0.05982625 0.03183066 0.015606454
0.1379987 0.018957086 -0.10554215 0.1728071 0.06330367 -0.03919514 0.07228289 0.18093154
-0.076355994 0.22190231 0.19516523 0.12030013 -0.26426056 0.31747752 0.2056063 0.19003998
-0.06596051 0.102469675 -0.16096602 0.0027042902 0.42216635 -0.08974163 0.15971442 0.08484604
0.056680705 0.1803225 0.007863226 -0.08439757 0.31843752 0.28478447 0.089364424 0.124246314
0.15388736 0.33722785 0.13279933 -0.03790535 0.04636267 -0.041286755 0.39542738 0.16541131
-0.019614346 0.14973776 -0.03151334 0.08889354 0.10701899 0.085174225 0.0268212 0.19476019
0.09195831 0.09382635 -0.20082475 0.018130235 0.22234134 0.07071625 -0.2104907 0.18144433
-0.086560205 -0.028536275 0.4487369 -0.056365073 0.23014574 0.20540437 0.03687418 0.20622826
0.14593878 -0.005671018 0.07997899 -0.19071212 0.105066955 0.21557324 0.17004916 -0.02551076
0.17088163 0.13479842 -0.011906159 0.038583234 0.14943941 0.05364422 0.06288498 -0.04708246
0.07194135 0.002303369 0.07253611 -0.14562882 0.0076096356 -0.021476597 -0.07748738 0.04501763
0.02800298 0.08877757 0.099384286 -0.0020813886 0.037459016 0.09527614 0.008714844 0.21023086
-0.24744098 0.03327734 0.09581966 -0.2367469 0.16841309 -0.009031798 0.09893134 -0.08139644
0.018947212 0.14105074 0.09009987 0.03873806 0.14178349 0.038898908 -0.2520288 -0.13379698
0.094964504 0.19417407 0.10363478 0.0414622 0.21860951 0.009548444 -0.060908314 0.15913029
-0.22708453 0.09961831 0.06969426 0.03808937 0.11304576 0.075410254 -0.121146105 -0.07503418
0.060935095 0.2037283 -0.2731606 -0.02484665 0.1537778 -0.06271707 0.13026154 0.15014873
-0.38091412 0.12492848 0.07380002 0.12090083 0.13406986 0.1682771 -0.17294665 0.009214242
0.07641622 0.19264008 0.11380151 -0.23374103 0.08774099 0.14045602 -0.01598091 0.0930674
0.0032404254 0.17171945 0.15643577 -0.03020167 -0.05606144 0.15000777 0.3046284 0.093152665
-0.18565622 -0.14932333 0.25126943 -0.1315318 0.19514781 -0.07869253 0.056462925 0.15684585
-0.040431846 0.2202555 0.044775866 -0.36466354 -0.1712578 -0.143154 0.26363748 -0.17998601
-0.21594149 -0.11614375 -0.17050043 -0.18306226 0.08373499 -0.12793444 0.22098388 -0.19833598
0.13093248 0.07678547 0.13632405 -0.17344137 -0.1986045 0.3049892 -0.16482131 0.2643033
0.17824396 -0.04777697 -0.2230709 -0.09550434 -0.023173818 0.10967488 0.17279743 -0.09110259
0.113009 0.046130046 -0.20482287 -0.122207806 0.15673395 -0.22246656 -0.18835923 0.23403639
0.18500084 -0.20602775 0.16201544 -0.10013184 -0.18906122 -0.18391271 0.19320545 -0.15008315
